model.ckpt (torch, 32780 bytes, 2 tensors)

weight f4 [10, 784]
-0.03420381 0.032996897 0.0009885542 -0.00020129606 0.005210083 -0.021911627 0.007897254 -0.0251585
0.0024800077 -0.023855172 0.027320769 -0.0011241399 -0.016330367 -0.018035794 0.033105932 -0.00010358736
-0.034262497 0.028187629 -0.0160118 -0.034951627 -0.006961951 -0.021780645 0.0350029 -0.02954886
-0.02042704 0.021664176 -0.025360692 -0.0029912703 0.011103429 -0.030281443 0.02467595 0.019639697
0.006446572 -0.0073481333 0.032533377 -0.02195564 -0.021783132 -0.028153047 0.01480175 -0.019267812
0.007248272 0.027505325 0.032589834 -0.025139406 -0.001965385 -0.010961236 0.030985521 -0.03217425
-0.0065057166 0.019300975 0.0298489 -0.0077744965 0.030863259 -0.0034928992 -0.027413424 -0.013304723
-7.613748e-05 -0.014998032 0.0034553595 -0.018426327 0.016308343 0.023708448 -0.01220762 -0.016068213
-0.011498991 0.0110772215 -0.018322252 -0.007991941 -0.003625538 -0.007865502 0.019834649 0.024453392
0.02304122 -0.002827147 0.003062556 -0.013840303 0.032415982 -0.026974948 0.017569616 -0.016696485
0.008670894 0.00077202026 0.021298438 -0.02234289 -0.022752324 -0.0069413353 0.02349722 0.011103026
0.035262577 0.021724237 0.027112318 0.0036236858 0.020023558 -0.023848517 0.008130541 -0.03757767
0.020119557 -0.02077061 0.024012076 -0.016551308 -0.008836005 0.02519756 0.022820534 0.015438241
-0.03139073 0.025131686 0.006774006 -0.010417409 -0.00042505274 -0.03152869 -0.008087459 0.018616736
0.030073244 0.017021585 0.016469805 -0.029293224 0.004090876 -0.027117217 -0.025100684 -0.011870816
-0.0075884126 0.027189296 0.017906811 -0.023328349 0.009578573 -0.0064737992 -0.028948188 -0.009287444
0.009533161 0.026078224 0.033997294 -0.017419858 -0.030107226 -0.019621748 -0.012743654 -0.015758066
-0.031779844 -0.012966413 0.0033015036 0.026675716 -0.025450524 0.017665539 0.014504161 0.021592574
-0.035077136 -0.006568536 0.024586193 0.017607342 -0.021464808 -0.009698529 -0.033285085 -0.0208698
0.020413673 0.035137385 0.0062406217 0.016358873 0.021505514 0.019463466 0.0300972 0.0029672754
0.0014171563 0.03100817 0.014234427 -0.02801425 -0.01049715 0.012229912 0.009781247 -0.0009504662
-0.010322729 -0.015905881 0.00016905073 -0.01898546 0.0044051087 0.010283766 -0.006616561 0.0068908297
0.02067036 0.00689918 -0.04299091 -0.017943365 -0.004705952 -0.007957764 0.0420775 0.027485646
0.027451595 0.059582535 0.005102599 0.005992093 0.011579917 -0.02346559 -0.006670389 0.014282358
0.026570234 0.013878959 -0.01324138 0.013562646 0.017292164 0.009857222 0.0055532195 -0.017421052
-0.016093137 0.028950043 -0.0067377146 -0.016879097 -0.030852305 -0.039848194 0.02788837 -0.02016028
0.0077703935 0.017662589 0.007805254 0.021109635 0.010847883 0.051918063 0.056572393 0.04465987
0.059409127 0.015304568 -0.022840802 0.027769929 -0.01253607 -0.014644355 0.023860443 0.018312847
-0.00881648 -0.0045157713 0.009465928 0.011247142 -0.0082482975 0.020252073 -0.023441741 0.01488081
-0.0028164752 -0.014814421 0.037206195 0.0031523206 -0.007663301 -0.0035164668 0.04335213 0.045427248
0.0071712555 0.028969944 -0.0054928334 0.040897127 0.06437807 0.02940643 -0.01285951 -0.0017620103
0.024862766 0.02409898 -0.036296375 -0.034363616 0.024311922 0.01001261 -0.00045422875 -0.016174322
00000000: 4b19 0cbd c127 073d 6092 813a 0013 53b9
00000010: 58b9 aa3b 0380 b3bc 7c63 013c 3319 cebc
00000020: a087 223b ec6b c3bc cecf df3c e057 93ba
00000030: 43c7 85bc cdbf 93bc 169a 073d 0a3d d9b8
00000040: d556 0cbd bee9 e63c 2e2b 83bc 7029 0fbd
00000050: 1421 e4bb 536d b2bc 335f 0f3d 7310 f2bc
00000060: 9c56 a7bc 1279 b13c 3ac1 cfbc 3009 44bb
00000070: 28eb 353c ca10 f8bc 3825 ca3c 6ee3 a03c
00000080: c43d d33b 9cc8 f0bb b841 053d 50dc b3bc
00000090: 8a72 b2bc 38a1 e6bc 0a83 723c 88d7 9dbc
000000a0: ea82 ed3b d952 e13c eb7c 053d 28f1 cdbc
000000b0: b0cd 00bb c296 33bc 59d5 fd3c 25c9 03bd
000000c0: e82d d5bb 141d 9e3c ae85 f43c 34c1 febb
000000d0: f2d4 fc3c 20e9 64bb 1e92 e0bc 0efc 59bc
000000e0: 00ac 9fb8 4eba 75bc 5073 623b cff2 96bc
000000f0: 1399 853c 3838 c23c 7802 48bc 7ca1 83bc
00000100: 4466 3cbc 3c7d 353c 8c18 96bc a1f0 02bc
00000110: 6f9a 6dbb 4ede 00bc 467c a23c 7b52 c83c
00000120: f1c0 bc3c a847 39bb 2ab5 483b 70c2 62bc
00000130: 9fc6 043d 91fa dcbc 28ee 8f3c 11c7 88bc
00000140: 5e10 0e3c 6761 4a3a 107a ae3c 7008 b7bc
00000150: 1563 babc 2474 e3bb 3e7d c03c 77e9 353c
00000160: 7e6f 103d 07f7 b13c a71a de3c 5c7b 6d3b
00000170: 7208 a43c f75d c3bc f635 053c 0beb 19bd
00000180: c5d1 a43c 2027 aabc f9b4 c43c 9c96 87bc
00000190: e4c4 10bc 1d6b ce3c 21f2 ba3c adf0 7c3c
000001a0: 9193 00bd f7e0 cd3c 7bf8 dd3b c8ad 2abc
000001b0: 9dd9 deb9 3a24 01bd 4381 04bc 2082 983c
000001c0: 2a5c f63c da70 8b3c afeb 863c 58f8 efbc
000001d0: c10c 863b ed24 debc f39f cdbc d07d 42bc
000001e0: 38a8 f8bb 16bc de3c 4eb1 923c 181b bfbc
000001f0: 72ef 1c3c 2a22 d4bb c024 edbc 5d2a 18bc
00000200: fa30 1c3c 00a2 d53c bf40 0b3d 17b4 8ebc
00000210: 6ea3 f6bc cabd a0bc c2ca 50bc 0f17 81bc
00000220: 952b 02bd 1471 54bc 0a5e 583b 0887 da3c
00000230: 9e7d d0bc 52b7 903c dca2 6d3c e9e2 b03c
00000240: 0bad 0fbd e03c d7bb fc68 c93c 463d 903c
00000250: f7d6 afbc 94e6 1ebc f155 08bd 25f7 aabc
00000260: 933a a73c 38ec 0f3d 217e cc3b 0b03 863c
00000270: 552c b03c d971 9f3c 678e f63c 9f76 423b
00000280: e0bf b93a d904 fe3c 8437 693c 247e e5bc
00000290: 3dfc 2bbc f85f 483c 8641 203c b528 79ba
000002a0: aa20 29bc 0d4d 82bc 3643 3139 6587 9bbc
000002b0: bb58 903b 3e7d 283c bdcf d8bb 78cc e13b
000002c0: e354 a93c 8412 e23b 3d17 30bd f7fd 92bc
000002d0: 6334 9abb 4861 02bc 7559 2c3d 9429 e13c
000002e0: 2be2 e03c d10c 743d b433 a73b 5259 c43b
000002f0: b1b9 3d3c e93a c0bc 4793 dabb 8d00 6a3c
00000300: d2a9 d93c 9364 633c 60f2 58bc dc35 5e3c
00000310: 4ca8 8d3c 3080 213c c8f7 b53b 98b6 8ebc
00000320: c1d5 83bc a428 ed3c 0cc8 dcbb 0846 8abc
00000330: f9bd fcbc dc37 23bd 2776 e43c 2c27 a5bc
00000340: c99e fe3b 22b1 903c 37c3 ff3b 1dee ac3c
00000350: 52bb 313c 09a8 543d 74b8 673d 45ed 363d
00000360: fc56 733d 03c0 7a3c a21c bbbc c37d e33c
00000370: 1764 4dbc e0ee 6fbc fa76 c33c d304 963c
00000380: ff72 10bc 09f9 93bb fb16 1b3c ef45 383c
00000390: de23 07bc ade7 a53c e508 c0bc a4ce 733c
000003a0: 9d94 38bb 2fb8 72bc 8665 183d 2a97 4e3b
000003b0: 6e1c fbbb 8674 66bb 0192 313d ec11 3a3d
000003c0: dafc ea3b 6052 ed3c 3afd b3bb bf83 273d
000003d0: a6d8 833d c1e5 f03c b2b0 52bc 41f3 e6ba
000003e0: 00ad cb3c 396b c53c 82ab 14bd ddc0 0cbd
000003f0: cc29 c73c ee0b 243c 8d25 eeb9 0380 84bc

bias f4 [10]
-0.045552406 0.08144837 -0.04637947 -0.008778064 0.0067686588 0.041853413 0.00805804 0.019605787
-0.028945023 0.028438278
00000000: 2995 3abd 67ce a63d 66f8 3dbd ded1 0fbc
00000010: a0cb dd3b 7c6e 2b3d df05 043c 519c a03c
00000020: 1d1e edbc 64f7 e83c
