model.ckpt (torch, 32780 bytes, 2 tensors)

weight f4 [10, 784]
00000000: ae03 53bc d753 97bc 9243 ab3c 4a54 febc
00000010: ea2d 9cbc 6a6c fcbc d0c3 5fbb 2e01 01bd
00000020: 404a a13c 54ec 333c e354 d3bc 4e98 26bc
00000030: 7c5a 23bc 0272 ad3c 15b5 b13b 9dce 3038
00000040: 402b c33b aae7 b5bc 4050 2e3c b2e6 d13c
00000050: b2ca 17bc 72d8 a73c f96c 073d 601c cd3a
00000060: b5f7 edbc 4450 833c 56e8 b23c 7088 34bb
00000070: 0055 5dbc 5ccf 9f3c 7018 0f3b 8166 f9bc
00000080: 004a 073d 5996 dc3c f091 0e3d 1f6f e6bc
00000090: 6fcb ea3c 6498 ecb9 9d69 db3b b7cb 083c
000000a0: f6f5 ca3c 451a 65ba 305f 9ebc 5cfb e23c
000000b0: 41b3 653c 2d6f 51bb ce11 27bc c5a3 d03c
000000c0: 5219 b03c 48d1 a1bc 1c79 9e3c 0d54 b7ba
000000d0: 212f f9bc 23f2 b4bc 725a 9b3c 288a 863b
000000e0: ce81 54bc a452 0ebd a49e 0d3d 0771 5f3c
000000f0: eb54 bcbc 2996 e93c aa63 c5bc 071a 033d
00000100: bd57 9cbc cce0 0a3d dfad 7ebc 8874 273b
00000110: 446d 143c eadc 7f3c dda5 60bc 88fe 94bc
00000120: e4e7 eebc 3161 92bc 7216 e6bc 9cc3 20bc
00000130: 9f88 cf3c 2c44 443c 0a83 d1bc 8889 e6bc
00000140: bf86 533c 9b49 c83c 34c1 2c3c ccfc acbc
00000150: bad8 c53c ee73 993c 6505 e4bc 3a52 64bc
00000160: c6f8 913b f813 bbbc d0f3 17bc 973b 033c
00000170: 91d5 04bd 098c 173c 45e3 aabc 7a71 f0bc
00000180: 390f 643c 442c d43b 6b1b 423b b205 823c
00000190: c6a1 95bc 3ea1 9cbc c5d5 c23a 5c44 0abd
000001a0: 23a2 933c 62bc fb3c 6702 9ebc ed8b 013d
000001b0: 50cc 04bd b5ee f63c 1de6 d33a 4399 d0bc
000001c0: 126f eb3c d016 e93b 523d 8e3c 37ee bbbb
000001d0: a716 bc3b 6791 12bd 746f 373c 169f 7dbc
000001e0: 78cb b1bb 1846 e8bc 3dde ecbc 9984 0fbd
000001f0: 07d1 d9bc a8ea bbbc 729e 92bc cc64 243c
00000200: b9d6 4abb b61d 523c eee4 ae3b 65c0 9fbc
00000210: b5cc 7abc aaf0 e1bc 68b0 f8bc 21ff 443c
00000220: ac7b 37bb 09c8 853b 1691 b63c 074f 763c
00000230: 210e 0a3d 9000 423b 2185 973c 0465 6cbc
00000240: 792c bdbb e555 893c e9d5 9ebb 45b9 10bd
00000250: fc64 3f3c 9b2a 0bbd 5fd9 893c d249 01bd
00000260: 46f4 7abc 3599 18bc a8d4 f23c f9c4 043d
00000270: 818e cf3c ce42 5e3d bbb3 463d 1e4f ebbb
00000280: 3df5 d8bc 9a57 953c 1dee 753c c8e5 33bc
00000290: 4a81 8c3b 35b1 7a3c 921d a33c b762 24bc
000002a0: dcb4 f7bb 2876 d7bc 77e1 683c bd1a 723c
000002b0: 982b 693b 057a 163c 407b a3bc 317e 2ebc
000002c0: 492f b53b 4893 38bd 7788 453c 973e 9ebc
000002d0: 9978 ff3c abac fdbb c765 553c d52e 5b3d
000002e0: 3b9e fc3a 1e6f bd3c f496 153c f9b0 223d
000002f0: 7182 2d3d 94ad df3c cecf db3c b6a0 96bb
00000300: acbc 20bd c453 823c 1cf3 9c3c 0cb9 26bc
00000310: 3821 953c 4e4d dcbc 1a25 f9bb 8920 013d
00000320: 7820 22bc c20a ddbc 0ee3 a83c ea54 72bc
00000330: 7335 3dbd 9e88 03bc 3617 7e3c 92b8 363b
00000340: ac9f c03a 03c7 d2bb e2b3 f93c 30c0 293d
00000350: 4ca2 0a3d af82 b63c 4e4c 16ba 3cf7 0f3d
00000360: 4e3b 4f3d 618e 243d 6bf4 d3bc 2bab 6a3c
00000370: 0931 0cbd b6a8 9ebc 3ba9 05bd f1bd 893c
00000380: 656e e6bb eb72 e4bc a1f7 b13c 2879 d1bb
00000390: a8ab 5d3c 86ff 0cbd 8fdf febc 77bb 653c
000003a0: 4c6f ba3b cfc4 b0bc 32ba 173c a55a 9abc
000003b0: 523f 28bb ca9c be3a 63e4 063d 839a 653c
000003c0: e6e9 463d 4084 7c3b c0b3 613d a702 803d
000003d0: c9f1 c73c c48a 8e3b 451e 45bc f1fb b1bc
000003e0: 57ed fbbb 6b49 013c 6fa4 e33c 4f42 6ebc
000003f0: a7cc f2bc 40ab b33c 09af 083d 2bf0 dc3c
-0.012879295 -0.018472595 0.020906243 -0.031046052 -0.019064862 -0.030813415 -0.0034143813 -0.031495266
0.019688725 0.010981638 -0.025797313 -0.010168148 -0.009970304 0.021172527 0.005423198 4.2154094e-05
0.0059560835 -0.022205193 0.01063925 0.0256227 -0.009264635 0.020488951 0.03306291 0.0015648715
-0.02904878 0.016029485 0.021839302 -0.0027547143 -0.013509035 0.019508056 0.0021834634 -0.030444385
0.033029556 0.02692716 0.034807146 -0.028129159 0.028661458 -0.00045126968 0.0066959397 0.008349351
0.024775486 -0.0008739571 -0.019332498 0.027707748 0.014019788 -0.0031957135 -0.010197116 0.025468716
0.021496449 -0.019753113 0.019344859 -0.0013986841 -0.03041798 -0.022088116 0.018964026 0.004105825
-0.012970401 -0.03474678 0.03457512 0.013637788 -0.02298971 0.028513985 -0.024095375 0.032007243
-0.019084806 0.03390579 -0.015544384 0.0025551636 0.009059254 0.015616635 -0.01371142 -0.018187776
-0.029163308 -0.01786861 -0.028086875 -0.009812262 0.0253337 0.011979144 -0.02557518 -0.028141752
0.012910544 0.02444916 0.01054411 -0.021116637 0.024151195 0.018732037 -0.027834604 -0.01393562
0.004454705 -0.02283667 -0.009274438 0.008009813 -0.032430235 0.009249696 -0.020860324 -0.029350985
0.013919645 0.0064750034 0.0029618393 0.015871856 -0.018265616 -0.019119855 0.0014864734 -0.0337566
0.018021649 0.030729476 -0.019288255 0.031627584 -0.03242141 0.030143121 0.0016166602 -0.025463706
0.028739486 0.007113315 0.017363224 -0.0057351845 0.005740005 -0.035783198 0.011196006 -0.015479824
-0.0054258667 -0.028353736 -0.028914565 -0.035038564 -0.02658893 -0.022939041 -0.017897818 0.0100337975
-0.0030950739 0.012824466 0.005337349 -0.01950092 -0.015307595 -0.027580578 -0.030357555 0.012023718
-0.0027997298 0.004082684 0.02228598 0.01503349 0.03370488 0.0029602386 0.018496098 -0.014428381
-0.005773124 0.01676459 -0.0048472774 -0.035332937 0.011681791 -0.03397618 0.016827283 -0.03156454
-0.015317028 -0.009313871 0.029642418 0.03241441 0.025336506 0.05426293 0.048511248 -0.0071810624
-0.026484126 0.018230248 0.015010384 -0.010980077 0.0042878734 0.0153010385 0.019911561 -0.010033301
-0.007559402 -0.026301458 0.014213911 0.014776883 0.0035578962 0.009184365 -0.019956231 -0.010650204
0.0055293185 -0.045062333 0.012056462 -0.019316955 0.031185435 -0.007741531 0.013024754 0.05351146
0.001927323 0.023124274 0.009130228 0.039719556 0.042360727 0.027304448 0.026832487 -0.004596795
-0.03924243 0.015909083 0.019158892 -0.010175955 0.018204316 -0.02689233 -0.0076033 0.03152517
-0.0098954365 -0.026982669 0.02061608 -0.014790753 -0.04619355 -0.008028178 0.015508464 0.0027881009
0.0014696023 -0.0064324155 0.030481283 0.04144305 0.033846185 0.022279112 -0.0005733416 0.03514789
0.050593667 0.040174846 -0.025873384 0.014323036 -0.03422645 -0.019367557 -0.032632094 0.016814204
-0.007032203 -0.027886828 0.021724524 -0.006392617 0.013529696 -0.034423374 -0.03111246 0.014021746
0.005689537 -0.02157822 0.009260701 -0.01884205 -0.0025672507 0.0014542576 0.03293265 0.014013889
0.048562907 0.0038530976 0.055103064 0.06250506 0.024407284 0.0043500382 -0.012031143 -0.02172658
-0.007688205 0.007891039 0.027788369 -0.014542176 -0.029638601 0.021932244 0.03337005 0.02696999

bias f4 [10]
00000000: fe86 9abc d2d5 b13d 3a8d 26bd 68a6 ca3b
00000010: 4165 deba 3216 85bc b106 94bc c760 b03c
00000020: 05ff dbbb 6a41 b9bc
-0.018863197 0.08683361 -0.040662028 0.006184388 -0.0016967432 -0.016245935 -0.018069597 0.021530522
-0.0067137503 -0.0226142
